cvar_prediction/experiments/lstm_quantile_model.pt (torch, 94999 bytes, 9 tensors)

lstm.weight_ih_l0 f4 [256, 5]
0	0xbf41e94b	-0.757466
1	0x3e2426c6	0.16030416
2	0x3d9977e0	0.074935675
3	0x3d6a1a4a	0.057153977
4	0x3e1f5266	0.15558776
5	0x3e6023eb	0.21888702
6	0x3ede6886	0.4343912
7	0x3e9bde03	0.3044282
8	0x3e263ae1	0.16233398
9	0x3c96c453	0.018404162
10	0xbd1c9614	-0.038229063
11	0x3dc8f23f	0.0981183
12	0xbd1d9a50	-0.038477242
13	0xbda85d58	-0.08220929
14	0x3e3b8d08	0.18315518
15	0x3f5a800c	0.85351634
16	0xbea0e220	-0.3142252
17	0xbf037600	-0.5135193
18	0xbe9c0c98	-0.30478358
19	0x3d7dc820	0.061958432
20	0x3e69556e	0.22786495
21	0x3dd1f3c5	0.102515735
22	0x3d510279	0.05102775
23	0x3d3fdce7	0.04684153
24	0x3d696e84	0.05699016
25	0xbef04d76	-0.46934098
26	0x3eff9967	0.49921724
27	0x3e6da3d0	0.23207021
28	0x3e240fbf	0.16021632
29	0xbdc423bc	-0.09577128
30	0xbeda4439	-0.42630175
31	0x3e864ec8	0.2623198
32	0x3ec007ce	0.37505955
33	0x3e34f413	0.17671232
34	0x3d8affcd	0.067870714
35	0xbe386c4a	-0.18010059
36	0x3e855a3d	0.2604541
37	0x3e65274e	0.22378275
38	0x3e322d65	0.17400129
39	0xbd7c058f	-0.06152874
40	0xbe749549	-0.23885073
41	0x3e6e76bd	0.23287483
42	0x3dd0d7be	0.101973996
43	0x3ddeec31	0.10884894
44	0x3d192150	0.037385285
45	0xbf025678	-0.5091319
46	0x3e86310b	0.26209292
47	0x3d805284	0.062657386
48	0xbd0b5548	-0.034016877
49	0x3dcc516a	0.09976466
50	0xbee625f8	-0.44950843
51	0x3e57e744	0.21084315
52	0x3d54555c	0.051839218
53	0x3ce8e495	0.028429309
54	0x3dc479eb	0.095935665
55	0xbf00ce55	-0.5031484
56	0x3e6bd24a	0.23029438
57	0x3e5ced30	0.21574855
58	0x3e2c3c1d	0.16819806
59	0xbdd37561	-0.103251226
60	0xbf1e053b	-0.6172673
61	0x3e81e59b	0.25370488
62	0x3e79ac08	0.24382031
63	0x3de5a76c	0.11213574
64	0x3d12eb3a	0.03586886
65	0x3f190832	0.5977813
66	0xbd1bb653	-0.038015675
67	0x3e54bf2a	0.20776048
68	0x3d45e4e5	0.048313994
69	0xbe6a8513	-0.22902326
70	0xbefe0d0d	-0.49619332
71	0x3ebedba0	0.37276936
72	0x3e35068a	0.17678276
73	0x3e698606	0.22805032
74	0xbd1a02cc	-0.037600324
75	0xbd05e1b3	-0.032685947
76	0xbe87f123	-0.2655116
77	0x3d2ca47d	0.042149056
78	0xbd98197d	-0.074267365
79	0xbb7f0e28	-0.003891835
80	0xbf138b3d	-0.57634336
81	0x3c921eb0	0.017836899
82	0x3cded377	0.027200444
83	0xbd2141ad	-0.039369274
84	0xbd1b9dc3	-0.03799225
85	0x3ed96bb8	0.42464995
86	0xbecef67f	-0.40422437
87	0xbe941805	-0.28924575
88	0xbd96bfa2	-0.0736077
89	0xbdfe243c	-0.12409255
90	0xbe5284ee	-0.20558521
91	0x3e8972c1	0.26845363
92	0x3d982f54	0.07430902
93	0x3e2ced8b	0.1688749
94	0xbcee47a3	-0.029086893
95	0xbe658ac9	-0.22416224
96	0x3e743a69	0.23850407
97	0x3e88647e	0.2663917
98	0x3d2cb446	0.04216411
99	0xbd8d8313	-0.06909766
100	0xbe59b54e	-0.21260568
101	0x3dc511c7	0.096225314
102	0x3dada286	0.084782645
103	0xbd913028	-0.07089263
104	0x3dbead5d	0.0931041
105	0xbf014bef	-0.5050649
106	0x3f0497aa	0.5179392
107	0x3ea3a5d5	0.31962457
108	0x3d2c53b2	0.042072006
109	0xbdfba7d7	-0.12287872
110	0xbde786f7	-0.113050394
111	0x3dc6ba6c	0.09703526
112	0x3d24995e	0.040185325
113	0xbdb1d0c5	-0.08682398
114	0x3d56cefa	0.052443482
115	0xbe0e14bf	-0.13875102
116	0xbe9a747d	-0.30166999
117	0xbe781c20	-0.24229479
118	0xbd1591b7	-0.036515918
119	0xbc11eddd	-0.008906809
120	0x3e805302	0.2506333
121	0xbc9b819b	-0.0189827
122	0x3e66bec7	0.22533713
123	0x3e2cd702	0.16878894
124	0x3de7e67f	0.113232605
125	0xbe67cdae	-0.22637054
126	0x3ea291c0	0.31751823
127	0x3eabff40	0.33593178
128	0x3e78c538	0.24293983
129	0xbddde265	-0.10834197
130	0x3ecaacca	0.39584953
131	0xbeb83f17	-0.35985634
132	0xbe4d92ba	-0.20075503
133	0xbd36519c	-0.044511423
134	0xbd29a2e5	-0.041415114
135	0x3c0f9452	0.00876339
136	0xbeab013d	-0.33399382
137	0xbe20b6f4	-0.15694791
138	0xbd0784fe	-0.033085816
139	0xbd08371c	-0.03325568
140	0xbf4d7812	-0.8026134
141	0x3ea0a5e2	0.3137656
142	0x3ec41100	0.3829422
143	0x3e7c3dcd	0.2463295
144	0xbdace914	-0.084428936
145	0xbf145fb2	-0.5795852
146	0xbe04587d	-0.1292438
147	0xbad14bb7	-0.0015967999
148	0x3cee27f3	0.029071784
149	0x3ca23ec1	0.019805314
150	0xbe3d7c0c	-0.18504351
151	0xbd353641	-0.044241194
152	0xbcfad4f2	-0.030619118
153	0x3dd8941e	0.10575126
154	0x3cccb9e3	0.024990981
155	0xbf489058	-0.7834525
156	0x3e9298b1	0.2863212
157	0x3e8174c1	0.2528439
158	0x3dd9b6c3	0.10630562
159	0x3d766b2a	0.060160793
160	0x3eefdf0f	0.46849868
161	0xbdc295b9	-0.095012136
162	0xbda2ce16	-0.07949464
163	0xbe29d581	-0.16585352
164	0x3d912883	0.07087805
165	0xbdf96ff6	-0.12179558
166	0x3e1c91f4	0.15290052
167	0x3dd182b1	0.102300055
168	0x3b6b5b22	0.0035912474
169	0xbaa39b9c	-0.0012482288
170	0x3d5d84cf	0.054081734
171	0xbdc204ab	-0.094735466
172	0x3e0187d3	0.12649469
173	0xbda8b595	-0.08237759
174	0x3c2bf566	0.010495519
175	0x3de26cd7	0.11055916
176	0xbdd80f09	-0.10549743
177	0x3e14a9d3	0.14517908
178	0xbdb439db	-0.088000976
179	0x3d66b563	0.056325328
180	0xbf20c75e	-0.6280421
181	0x3ec45f29	0.3835385
182	0x3c1b06b2	0.0094620455
183	0xbe95e5e1	-0.29276946
184	0x3d72f881	0.059319023
185	0xbe07f47d	-0.13276859
186	0xbda791ca	-0.08182104
187	0xbe874bf1	-0.26425126
188	0xbe27ec10	-0.16398644
189	0xbd86315d	-0.06552384
190	0xbde131bf	-0.109958164
191	0x3e4c0f3f	0.19927691
192	0x3e4ba688	0.19887745
193	0x3e8c91e8	0.27455068
194	0x3cc6cd16	0.024267714
195	0x3bf0ae20	0.007344976
196	0xbceae484	-0.028673418
197	0xbdc5bbf1	-0.096549876
198	0x3d7d02ce	0.061770253
199	0xbbe6b99f	-0.0070411707
200	0x3da6551c	0.08121702
201	0x3d8f1d3e	0.069879994
202	0x3d97ece5	0.07418231
203	0x3cf1f19c	0.029534154
204	0x3cbd6078	0.023117289
205	0xbe11e41e	-0.14247176
206	0xbd5888e9	-0.052864943
207	0x3db79864	0.08964613
208	0xbdd09e7a	-0.10186477
209	0x3d8c0ad1	0.068380006
210	0xbf5cb90b	-0.86219853
211	0x3f112b33	0.5670654
212	0x3e8f7c14	0.28024352
213	0x3def3cdb	0.11681529
214	0x3e1089bd	0.14115043
215	0x3d8db752	0.06919731
216	0xbe0f8909	-0.14017119
217	0xbe72776a	-0.23678365
218	0xbd73d2ad	-0.059527088
219	0xbc8d0d9e	-0.017218407
220	0xbf02bb4f	-0.5106706
221	0x3e7a953d	0.24470992
222	0x3e7b253a	0.2452592
223	0x3cf3fc9c	0.02978354
224	0xbda625c7	-0.08112674
225	0xbd9f2d59	-0.07772321
226	0x3e6ff333	0.23432617
227	0xbc05d005	-0.0081672715
228	0x3cf8c27b	0.030366173
229	0x3db55670	0.08854377
230	0xbf3467e1	-0.70471007
231	0x3e33cf08	0.17559445
232	0x3e5ce4e9	0.21571697
233	0x3ad03bcf	0.0015886965
234	0xbbd759d3	-0.006571987
235	0xbf116510	-0.56794834
236	0x3e997285	0.29970184
237	0x3d223496	0.03960093
238	0xbe035ed7	-0.12829147
239	0xbdb5a55a	-0.08869429
240	0x3ed3e3a5	0.41384616
241	0xbd1e5e24	-0.038664
242	0xbe509167	-0.20367967
243	0xbe2e9d9a	-0.17052308
244	0x3d9c5b40	0.07634592
245	0xbedb39d2	-0.4281755
246	0x3e5b4f28	0.21416914
247	0x3e3d2716	0.18471941
248	0x3e3ed233	0.18634872
249	0xbd40c675	-0.047064263
250	0xbf35b934	-0.7098572
251	0xbd9476fe	-0.072492585
252	0xbe242ba2	-0.1603227
253	0xbc1aacc0	-0.009440601
254	0x3ce01fac	0.027358852
255	0x3e0a851b	0.13527338

lstm.weight_hh_l0 f4 [256, 64]
0	0x3dc64226	0.096805856
1	0x3e81dfd1	0.2536607
2	0xbd930f8b	-0.07180699
3	0x3df9155f	0.12162279
4	0x3e24d0c9	0.1609527
5	0xbccf5844	-0.025310643
6	0x3dab7417	0.08371752
7	0x3e19bb3f	0.15012835
8	0xbe204068	-0.15649569
9	0xbdfd5523	-0.12369754
10	0x3d2d42ec	0.04230015
11	0x3db63210	0.088962674
12	0xbd538db9	-0.05164883
13	0xbc076104	-0.008262876
14	0xbdb6f459	-0.08933324
15	0x3da0a22f	0.07843434
16	0xbdd7cca2	-0.105370775
17	0xbdc31f52	-0.09527458
18	0xbdc79153	-0.09744515
19	0x3cd070ce	0.025444414
20	0xbd20301c	-0.03910838
21	0xbdb46acf	-0.088094346
22	0x3d09f570	0.033681333
23	0xbdbbb9c3	-0.091662906
24	0x3d990000	0.07470703
25	0xbd6e2bf9	-0.058147404
26	0xbe065eef	-0.13122152
27	0xbe1bb9e5	-0.15207632
28	0xbdfab3ea	-0.12241347
29	0xbcc7d7d3	-0.024394905
30	0x3cb46735	0.02202187
31	0x3dccfd3a	0.10009237
32	0x3cbeb5e5	0.023280093
33	0x3dcc90c1	0.09988547
34	0x3da21260	0.07913661
35	0x3e0c2725	0.13686807
36	0xbd993695	-0.07481114
37	0x3ce4fad9	0.027951645
38	0x3d870495	0.06592671
39	0x3d6f0501	0.05835438
40	0xbd3b8d7a	-0.04578922
41	0x3d9ea38e	0.07746039
42	0xbc93edef	-0.018057792
43	0x3ddb1f7d	0.10699365
44	0xbdfde748	-0.12397629
45	0xbd10ad34	-0.03532143
46	0x3d7639f3	0.06011386
47	0x3dafaed7	0.0857827
48	0xbe21b591	-0.15791918
49	0x3d4dbff2	0.05023188
50	0x3d8cd132	0.06875838
51	0x3d3a8d80	0.0455451
52	0x3df38874	0.11891261
53	0xbd1cbedf	-0.038267966
54	0x3dd23b5c	0.10265228
55	0xbdfb4306	-0.12268643
56	0xbd96289d	-0.07331965
57	0x3d094913	0.033516955
58	0xbdc95072	-0.09829797
59	0x3cca55ef	0.02469918
60	0xbd95a99c	-0.07307741
61	0xbe1109a8	-0.1416384
62	0xbdb47293	-0.08810916
63	0xbe079e34	-0.13243943
64	0xbeb53d6d	-0.35398427
65	0xbe6ea11f	-0.2330365
66	0xbeb4de7c	-0.35325992
67	0x3e93c2f3	0.28859672
68	0x3e022626	0.12709865
69	0xbea8eb0c	-0.32991827
70	0x3e506834	0.2035225
71	0xbe49ecfb	-0.19719307
72	0x3e6258cb	0.22104184
73	0x3f06421e	0.52444637
74	0x3ecd9319	0.4015129
75	0x3e34dcbf	0.17662333
76	0x3d15e986	0.03659966
77	0x3e0c21e3	0.13684802
78	0x3e8067e0	0.2507925
79	0x3eba9f81	0.36449817
80	0x3f03d26d	0.5149296
81	0xbee09977	-0.43867084
82	0x3da57113	0.08078208
83	0xbbde7249	-0.006788526
84	0x3e06bd13	0.13158064
85	0xbf22c4e8	-0.63581705
86	0xbe940a09	-0.28913906
87	0xbf1fc70d	-0.624131
88	0xbe33106d	-0.17486735
89	0xbd821d4d	-0.06353245
90	0xbddbaa77	-0.10725873
91	0xbe422661	-0.18959953
92	0x3e858dfc	0.26084888
93	0xbe8172db	-0.2528294
94	0x3e0cbc88	0.13743794
95	0x3de6f1fe	0.11276625
96	0xbcf35789	-0.029704826
97	0x3c337f1e	0.0109556
98	0xbe3ae513	-0.18251447
99	0xbdbbce7c	-0.09170243
100	0xbf56c32f	-0.83891577
101	0x3f2b4bb1	0.6691237
102	0xbbfba64a	-0.0076797353
103	0x3e7c97eb	0.24667327
104	0xbe817e82	-0.2529183
105	0xbde63a42	-0.112415805
106	0xbdae5602	-0.085124984
107	0x3ec6ed5b	0.38852963
108	0x3e193fdd	0.14965768
109	0xbe762b74	-0.24040014
110	0xbd3a7782	-0.045524128
111	0x3f1619f1	0.58633333
112	0xbec9703e	-0.39343446
113	0xbec94179	-0.39307764
114	0xbf1c50c4	-0.6106074
115	0xbf13073b	-0.5743291
116	0xbe8759c4	-0.26435673
117	0xbe932c39	-0.28744677
118	0x3e146e3b	0.14495175
119	0x3eeaf140	0.45887184
120	0xbd98c0fd	-0.074586846
121	0x3eb10709	0.3457568
122	0x3eb09d27	0.34494898
123	0xbe444aeb	-0.19169204
124	0x38bf8620	9.1325724e-05
125	0xbd8bd96a	-0.06828578
126	0xbf411bc3	-0.75432986
127	0x3e1134e5	0.14180334
128	0xbe216d9d	-0.1576447
129	0x3a8aad89	0.0010580282
130	0x3d83de95	0.064389385
131	0x3d5d1e35	0.053983886
132	0x3e4dce72	0.20098284
133	0xbe37f128	-0.17963088
134	0xbdba8d86	-0.09109025
135	0x3db608a0	0.08888364
136	0xbcd9c5a9	-0.02658351
137	0x3d93379c	0.07188341
138	0x3a611496	0.00085861364
139	0x3c05f1d7	0.008175335
140	0xbd97fccd	-0.07421265
141	0xbd67d7ff	-0.056602474
142	0x3e120418	0.14259374
143	0x3e8252ca	0.25453788
144	0x3d736e66	0.059431456
145	0xbdbf3084	-0.093354255
146	0xbd25f9aa	-0.0405213
147	0x38e0e220	0.000107232714
148	0xbcdada0b	-0.0267153
149	0xbe5c20a5	-0.21496828
150	0xbaa55e48	-0.0012616599
151	0xbe1415ac	-0.14461392
152	0x3d2fb808	0.042900115
153	0x3db29c6f	0.087212436
154	0xbd4b9e61	-0.04971159
155	0xbe296135	-0.16540988
156	0x3e2d4865	0.16922148
157	0xbd2e5e1c	-0.04257022
158	0x3d62f94e	0.055413537
159	0x3dfbc1ce	0.12292825
160	0x3da8ae61	0.08236385
161	0x3aa6a494	0.0012713843
162	0xbe6cc8bc	-0.23123449
163	0xbd8e32b8	-0.069432676
164	0xbe98287c	-0.29718387
165	0x3e6fc072	0.23413256
166	0x3dd30304	0.103033096
167	0x3ddc5da9	0.10760052
168	0x3d7e5d26	0.062100552
169	0x3d3f5a61	0.04671705
170	0xbdf1e3fb	-0.11811062
171	0x3e83c65b	0.2573727
172	0xbca82d6a	-0.020529468
173	0xbca0b3ac	-0.019616924
174	0x3db17f0a	0.08666809
175	0x3d60d7aa	0.054893173
176	0xbdf85179	-0.12124915
177	0xbcfb1c3c	-0.030653112
178	0xbe46f2e2	-0.1942859
179	0xbdcef752	-0.10105766
180	0xbd7d5d14	-0.061856344
181	0xb9c91305	-0.00038351878
182	0xbd48396e	-0.048882894
183	0x3e357603	0.17720799
184	0x3d9e11e8	0.07718259
185	0x3e76e127	0.24109326
186	0x3dd96ed5	0.10616843
187	0xbe03578e	-0.12826368
188	0x3e1c62d3	0.15272073
189	0xbde8c979	-0.11366553
190	0xbe9cb093	-0.30603465
191	0x3ddb887b	0.10719391
192	0xbdb34e8e	-0.087552175
193	0xbe2fa5b3	-0.17153053
194	0xbdd27c6e	-0.10277639
195	0x3d2f22c0	0.04275775
196	0xbb62f314	-0.003462975
197	0xbe7e64b7	-0.24843107
198	0xbdac52ed	-0.08414254
199	0xbd9370b3	-0.0719923
200	0x3d253cef	0.040341314
201	0x3e02b503	0.12764363
202	0x3d4bfe20	0.0498029
203	0x3db53176	0.088473246
204	0x3e374c58	0.17900217
205	0x3e2c7e66	0.16845092
206	0x3ca1d329	0.01975401
207	0x3e2d3b23	0.1691709
208	0x39c8f49a	0.00038329215
209	0xbd9e76e5	-0.07737521
210	0x3e2e67e0	0.17031813
211	0x3cdf4734	0.027255632
212	0x3e37cea4	0.17949921
213	0xbe27a62e	-0.16371986
214	0xbdd995db	-0.10624286
215	0x3bb200a4	0.0054322053
216	0xbdce4f08	-0.10073668
217	0x3ce0164c	0.027354382
218	0x3cd2d518	0.025736377
219	0x3da1c9af	0.07899796
220	0x3e47553c	0.19466108
221	0x3d82e651	0.063915856
222	0x3e36c4fb	0.1784858
223	0x3e3419c2	0.17587951
224	0xbe1037a0	-0.14083719
225	0x3dc335a4	0.095317155
226	0xbbb90466	-0.0056462763
227	0x3d0ea56b	0.034825724
228	0xbe1a05fc	-0.15041345
229	0x3e44e2f9	0.19227208
230	0x3cb74b72	0.022374842
231	0xbd1049a7	-0.03522649
232	0x3d1fdfe4	0.039031878
233	0x3d525926	0.05135455
234	0x39cebb56	0.00039430958
235	0x3e1fa0f9	0.1558875
236	0xbd633084	-0.05546619
237	0xbe2a0112	-0.16601971
238	0x3d678eee	0.056532793
239	0x3e954e94	0.29161513
240	0xbe1cc5a6	-0.15309772
241	0xbddd8cc4	-0.108178645
242	0xbdfbfab3	-0.123036765
243	0xbdc83ac8	-0.09776837
244	0xbd21c963	-0.039498698
245	0xbd17ba79	-0.03704307
246	0x3d822217	0.06354158
247	0x3cf818f1	0.03028533
248	0x3df04018	0.11730975
249	0x3e6d6675	0.23183616
250	0x3cafd899	0.021465586
251	0x3cf274d7	0.02959673
252	0x3da083c8	0.07837635
253	0x3c124c2b	0.008929293
254	0xbe56d0d3	-0.20978098
255	0xbca85e6c	-0.020552836

lstm.bias_ih_l0 f4 [256]
0	0xbd35f9c6	-0.044427656
1	0xbdd3f700	-0.10349846
2	0xbc37ef06	-0.011226421
3	0x3dd1174a	0.1020952
4	0xbd399030	-0.045303524
5	0xbd6b7383	-0.057483207
6	0xbcd25956	-0.025677364
7	0x3b5d2ac3	0.0033747412
8	0xbba4ad65	-0.005025553
9	0xbdcfc68d	-0.101452924
10	0xbe1f2841	-0.155427
11	0x3cd70212	0.026246104
12	0xbe325582	-0.17415431
13	0x3e16f4c6	0.14741811
14	0xbdf56f57	-0.11984127
15	0xbd27a7c8	-0.040931493
16	0xbd40dab2	-0.047083564
17	0x3d90d45c	0.07071754
18	0xbd4f4b86	-0.050609134
19	0xbbc2e7b4	-0.0059480313
20	0xbe18a149	-0.14905275
21	0x3dd104e3	0.1020601
22	0xbd532ab9	-0.051554415
23	0xbca0fb18	-0.01965098
24	0xbd589093	-0.05287225
25	0xbd3e2507	-0.04642203
26	0xbd4fde47	-0.05074909
27	0xbd84d8e0	-0.06486678
28	0xbddfb9b1	-0.1092409
29	0xbe150dcb	-0.14556043
30	0xbd9eddb2	-0.07757129
31	0x3d61f607	0.05516627
32	0xbde927c1	-0.113845356
33	0xbe2d3197	-0.16913448
34	0xbd339485	-0.04384281
35	0xbd5012f7	-0.050799336
36	0xbe189497	-0.14900433
37	0xbcf5ea4b	-0.030018946
38	0xbdde8d5d	-0.10866807
39	0x3c9da517	0.01924376
40	0xbcec5dd1	-0.028853329
41	0x3b438e83	0.0029839582
42	0xbdaf7cc4	-0.08568719
43	0x3d272d78	0.040814847
44	0xbdb7de52	-0.08977951
45	0xbde00a7d	-0.109395005
46	0xbe093232	-0.13398054
47	0xbdcb88be	-0.09938191
48	0x3d08df5a	0.03341613
49	0x3d58c2a8	0.052920014
50	0x3d3e3475	0.046436746
51	0xbdc55b61	-0.0963657
52	0xbe32d53e	-0.17464158
53	0x3bdff294	0.0068343375
54	0xbdccf198	-0.10007018
55	0x3da26837	0.07930034
56	0xbd97e1c7	-0.074161105
57	0xbe20150c	-0.15633029
58	0xbd7f209f	-0.06228697
59	0xbd4723d2	-0.048618145
60	0xb98cbcbe	-0.00026843505
61	0x3db50a3e	0.08839844
62	0x3e1d9390	0.15388322
63	0x3de56627	0.11201125
64	0xbd5f6401	-0.05453873
65	0x3d697612	0.056997366
66	0x3b683935	0.0035434489
67	0xbc66c1cb	-0.01408429
68	0xbdbe4081	-0.09289647
69	0xbd0a34b0	-0.033741653
70	0xbda35d9e	-0.079768404
71	0x3cf80b35	0.030278781
72	0xbd394be7	-0.0452384
73	0x3daabab4	0.08336392
74	0x3c844aa8	0.01614888
75	0xbd1256ea	-0.03572742
76	0xbb326aee	-0.002722438
77	0x3e533745	0.20626552
78	0x3c857f0a	0.016295929
79	0x3a51856c	0.00079925987
80	0xbd5d57df	-0.05403888
81	0xbd24cd5a	-0.0402349
82	0x3c968ebf	0.018378614
83	0x3d35b7aa	0.04436461
84	0xbe25cbb9	-0.16190995
85	0x3d35e477	0.044407334
86	0xbd84d76c	-0.06486401
87	0xbd48c7f8	-0.04901883
88	0xbe122fd3	-0.14276056
89	0x3d98b064	0.07455519
90	0x3dc59784	0.0964804
91	0xbde05407	-0.10953527
92	0xbd8f0589	-0.069834776
93	0xbd470bbf	-0.048595186
94	0x3d83f33f	0.0644288
95	0xbd3378f1	-0.04381651
96	0xbd0abf55	-0.033873875
97	0xbd7cc542	-0.061711557
98	0xbe33c0bb	-0.1755399
99	0xbd0b43f9	-0.03400037
100	0xbd463e8d	-0.048399497
101	0xbda57e93	-0.08080783
102	0xbe03a4a7	-0.12855779
103	0xbdb1c85d	-0.086807944
104	0xbe6229ea	-0.22086301
105	0xbc899c44	-0.016798146
106	0x3d96e08a	0.07367046
107	0x3d53fc18	0.051754087
108	0xbc8f3838	-0.017482862
109	0xbd88e01e	-0.06683372
110	0xbc548de2	-0.012973281
111	0xbcf6e01e	-0.030136164
112	0xbe1571dd	-0.14594217
113	0xbe1ca194	-0.15296012
114	0xbde2b187	-0.11069017
115	0x3d135c72	0.035976835
116	0xbd0068ae	-0.03134983
117	0xbdc4d00a	-0.09609993
118	0xbe538e01	-0.20659639
119	0xbdc176c0	-0.09446478
120	0xbd0d1e40	-0.034452677
121	0xbd30fcb5	-0.04320975
122	0x3d3728a4	0.044716492
123	0x3d1070b0	0.035263717
124	0x3cc3c3c5	0.023897061
125	0x3dc466e9	0.09589941
126	0x3e355f89	0.17712225
127	0xbd7379e8	-0.05944243
128	0xbd63cf37	-0.055617537
129	0x3dc8dc4d	0.09807644
130	0x3caa6510	0.020800143
131	0xbd01a5b1	-0.031652156
132	0xbdc438dc	-0.095811576
133	0xbc05235b	-0.008126105
134	0x3d63e1d0	0.055635273
135	0xbd48d084	-0.04902698
136	0x3c36031c	0.01110914
137	0xbcf03cad	-0.029325807
138	0x3d2c7ae3	0.04210938
139	0x3c0c18dd	0.00855085
140	0x3d07ef86	0.03318741
141	0x3dc267c2	0.094924465
142	0xbd116aeb	-0.035502356
143	0x3d745a51	0.059656445
144	0x3d99106f	0.074738376
145	0x3c5a0811	0.013307587
146	0x3bab4022	0.005226151
147	0xbd7e48c0	-0.0620811
148	0x3d86bdcd	0.065791704
149	0x3db278c0	0.087144375
150	0x3d3a5383	0.0454898
151	0xbd389f5c	-0.045073852
152	0xbd062aeb	-0.032755774
153	0x3d3b29b7	0.04569408
154	0x3db04bf2	0.086082354
155	0x3db99fd9	0.09063692
156	0x3d8534bb	0.06504198
157	0x3d07b708	0.033133537
158	0xbce3c27b	-0.027802696
159	0x3d80b678	0.06284803
160	0xbad3dd33	-0.0016163945
161	0xbcd2748a	-0.025690336
162	0x3c7e13d1	0.015507654
163	0x3d341823	0.04396833
164	0x39c1d7ca	0.00036972604
165	0xbd113ea0	-0.035460114
166	0xbc9bd3a5	-0.019021818
167	0xbb6e4948	-0.0036359597
168	0x3cfbc0d7	0.030731602
169	0x3d79ee12	0.061018057
170	0xbd037d07	-0.032101657
171	0x3cd5c7f3	0.02609632
172	0x3d5259ba	0.0513551
173	0xbdd125f2	-0.102123156
174	0x3cf4dd85	0.029890785
175	0xbc946449	-0.018114226
176	0x3cca95f5	0.024729708
177	0xbd85c3eb	-0.06531509
178	0xbda03cff	-0.07824134
179	0x3cc5e5cd	0.02415743
180	0xbd0337e9	-0.032035742
181	0xbb26937a	-0.0025417493
182	0xbc9a4483	-0.018831497
183	0x3d1d05cd	0.03833561
184	0xbd5a91ab	-0.053361576
185	0xbcbc41a5	-0.02298052
186	0xbd5f216f	-0.054475244
187	0x3d39b443	0.045337927
188	0xbd7bf50c	-0.06151299
189	0xbdc32225	-0.09527997
190	0x3ccd7967	0.025082303
191	0xbd3017f4	-0.042991593
192	0xbd2d40f7	-0.042298283
193	0xbcf48e5e	-0.029853042
194	0x3bcc8d97	0.0062424648
195	0xbd87128f	-0.06595337
196	0xbcce54d7	-0.02518694
197	0xbde0c5d8	-0.10975236
198	0x3d9f5b18	0.07781047
199	0xbde77dbf	-0.11303281
200	0x3cc11bbe	0.023572799
201	0xbdeafd92	-0.11474146
202	0xbd13f9bd	-0.03612684
203	0xbdfe1e9c	-0.12408182
204	0x3b7f6b36	0.0038973815
205	0xbd88c3cc	-0.0667797
206	0x3de00d8e	0.10940085
207	0xbde4964c	-0.11161479
208	0x3d4ba88a	0.04972128
209	0x3cdc0f07	0.026862634
210	0xbe060355	-0.13087209
211	0xbe1dc0d1	-0.15405585
212	0x3c6e4886	0.014543658
213	0x3c699d64	0.014258716
214	0x3d7c1cd4	0.06155093
215	0xbe3696fd	-0.17831035
216	0x3d6c1c73	0.05764432
217	0x3d9f00d6	0.07763831
218	0x3cd6bbab	0.026212534
219	0x3d680ca0	0.056652665
220	0x3d693b0c	0.056941077
221	0x3d390458	0.04517016
222	0xbd93fa2b	-0.0722545
223	0xbdbd60a6	-0.0924695
224	0xbe79fb1c	-0.24412197
225	0x3d29312c	0.04130666
226	0xbe1fffa6	-0.15624866
227	0xbd294048	-0.04132107
228	0xbccda4ea	-0.025103051
229	0x3dce6d9e	0.100795016
230	0xbc8bb63f	-0.017054675
231	0x3d1e0a9a	0.03858433
232	0xbe4f1e1f	-0.20226334
233	0x3cfbc51b	0.030733636
234	0xbdc7e7ea	-0.09761031
235	0x3dc5c683	0.09657004
236	0xbe01469a	-0.12624589
237	0xbdccf869	-0.10008318
238	0xbdf92174	-0.12164584
239	0xbe017197	-0.12640987
240	0xbe129dc5	-0.14317997
241	0x3d3cda1b	0.04610644
242	0xbd669520	-0.05629456
243	0xbbf671ba	-0.0075208815
244	0xbd81786e	-0.06321798
245	0xbd335ef4	-0.043791726
246	0xbd89559a	-0.0670578
247	0xbe0316fd	-0.12801738
248	0x3d49798b	0.049188178
249	0xbd363ee9	-0.04449359
250	0xbba1584b	-0.0049238554
251	0xbdc16242	-0.09442569
252	0xbe24dbe4	-0.16099507
253	0x3d4970b8	0.049179763
254	0x3da6bc4b	0.08141383
255	0x3d123e20	0.03570378

lstm.bias_hh_l0 f4 [256]
0	0xbceedab4	-0.02915702
1	0xbe05dd25	-0.13072641
2	0xbe4b3a17	-0.19846378
3	0x3da663c4	0.081244975
4	0xbd84046f	-0.06446158
5	0xbd45c02d	-0.048278976
6	0x3d53b8e2	0.05168999
7	0x3d264ee3	0.040602576
8	0xbd3ee783	-0.046607506
9	0x3cb88ba8	0.02252753
10	0xbe2e2113	-0.17004804
11	0xbddb969d	-0.107220866
12	0x3c041795	0.008062263
13	0xbce8a747	-0.028400077
14	0xbde07a29	-0.109608
15	0x3ddd3e57	0.10802906
16	0xbe40a8e8	-0.18814433
17	0x3a257e74	0.00063130935
18	0x3c8e7fbb	0.017394891
19	0xbd2d3ba9	-0.042293224
20	0xbca812a0	-0.020516694
21	0x3d990b03	0.074728034
22	0x3d87fed8	0.066404045
23	0xbe48498a	-0.19559303
24	0xbe1c7bb1	-0.1528156
25	0xbba6a0e2	-0.0050850967
26	0xbd8d15fa	-0.06888957
27	0x3c1be935	0.00951605
28	0x3d58758e	0.052846484
29	0xbdd699d5	-0.1047856
30	0x3d229a97	0.03969821
31	0xbda76e13	-0.08175292
32	0xbde2f997	-0.11082762
33	0xbe101a05	-0.14072426
34	0xbd0e9d87	-0.0348182
35	0x3d015d71	0.031583253
36	0xbdafc391	-0.08582223
37	0x3dd128af	0.10212838
38	0xbd99d93b	-0.075121365
39	0xbd45e2a7	-0.048311856
40	0xbe381c6d	-0.17979594
41	0x3b927306	0.0044692783
42	0xbe108f71	-0.14117219
43	0xbd3fada8	-0.04679647
44	0x3db88f68	0.090117276
45	0xbd9e70b6	-0.07736342
46	0x3dc83346	0.09775405
47	0x3cba0019	0.022705125
48	0xbd0fd681	-0.035116676
49	0xbc272852	-0.010202484
50	0xbd686d27	-0.05674472
51	0x3d8ac28f	0.0677539
52	0xbd2b456b	-0.04181425
53	0xbdc66ae3	-0.09688356
54	0xbdbbffe4	-0.09179667
55	0xbdf061b3	-0.11737385
56	0x3d9c8ced	0.07644067
57	0x3d3b1427	0.045673516
58	0x3d99fab4	0.07518521
59	0xbccd2f46	-0.025046956
60	0xbb2dd3cc	-0.0026523946
61	0x3d5e22c1	0.054232363
62	0x3dc92393	0.09821238
63	0x3d14d674	0.03633733
64	0xbda412a5	-0.08011369
65	0x3dfd3c4c	0.12365016
66	0xbe038ea8	-0.12847388
67	0x3da154e6	0.07877521
68	0x3d86eaf3	0.06587782
69	0xbd6a46ff	-0.057196613
70	0xbde6fcb6	-0.112786695
71	0xbded3cc9	-0.115838595
72	0xbba942d1	-0.005165436
73	0xbd29bd17	-0.041440096
74	0xbd2dd45c	-0.04243885
75	0xbd83b628	-0.06431228
76	0xbd881a32	-0.06645621
77	0x3d6c0b88	0.057628185
78	0xbde6c270	-0.11267555
79	0x3dd8914c	0.10574588
80	0x3d00c8a1	0.031441335
81	0xbd4a5ce4	-0.049404994
82	0xbd9d0b66	-0.0766819
83	0xbd5bc31a	-0.05365286
84	0xbcac340b	-0.02102091
85	0x3bc52b23	0.006017105
86	0xbd9bb506	-0.07602887
87	0xbdf78aa4	-0.120869905
88	0xbda3b2ab	-0.079930626
89	0x3d0a5344	0.033770815
90	0x3da80426	0.08203916
91	0x3d823003	0.06356814
92	0xbd060867	-0.032722857
93	0xbd932d45	-0.07186369
94	0xbc73e16f	-0.0148852905
95	0x3d8d455b	0.06897994
96	0xbdb0e903	-0.086381935
97	0x3d381b36	0.044947825
98	0xbe0dcdf7	-0.138481
99	0x3d9539cd	0.07286415
100	0x3de4f532	0.1117958
101	0x3d81bb05	0.06334499
102	0x3d0a7e55	0.033811886
103	0xbde937d8	-0.113876045
104	0xbcc5f9bb	-0.024166932
105	0xbd3edd2e	-0.046597652
106	0x3d126175	0.035737474
107	0x3d075eda	0.033049442
108	0x3d8b6050	0.068054795
109	0xbe27213a	-0.16321269
110	0x3d287f8c	0.041137263
111	0xbd04e726	-0.032447003
112	0xbe32dfe7	-0.17468224
113	0xbe063fa2	-0.13110211
114	0x3d497252	0.04918129
115	0xbbcbed28	-0.0062233396
116	0xbde2fc36	-0.11083262
117	0xbd5fb3ca	-0.05461482
118	0xbe3da4d3	-0.18519907
119	0xbdb7711c	-0.08957121
120	0x3d058d08	0.0326052
121	0x3bd15bf7	0.006389137
122	0x3dcc5912	0.09977926
123	0xbdbcd88b	-0.0922099
124	0xbdcf8ab0	-0.101338744
125	0x3e032b75	0.12809546
126	0x3d962a0b	0.07332238
127	0xbdb5294a	-0.08845766
128	0xbc05dfad	-0.008171004
129	0xbd74d321	-0.05977166
130	0xbc1fd470	-0.009755239
131	0xbda16a65	-0.07881621
132	0x3dc34a4e	0.09535657
133	0x3be86ba3	0.0070929094
134	0x3d147b24	0.03625025
135	0x3cae5378	0.021280035
136	0x3d133fe6	0.03594961
137	0x3ab000bd	0.0013427954
138	0xbd053d62	-0.032529242
139	0x3c96d920	0.01841408
140	0xbbfbe96b	-0.0076877377
141	0xbdf066d6	-0.117383644
142	0x3d2e6465	0.042576212
143	0xbda54496	-0.08069722
144	0xbd20e8e1	-0.03928459
145	0x3d88bb2e	0.06676327
146	0xbab63ed0	-0.0013904218
147	0xbbdf2990	-0.0068103746
148	0xbd931549	-0.07181794
149	0xbc98aa0c	-0.018635772
150	0xbd5aa6a5	-0.05338158
151	0x3d1ec7f8	0.038764924
152	0x3ce00f9d	0.027351195
153	0xbdaeed2f	-0.08541333
154	0xbd3869f9	-0.04502294
155	0xbcdd4db5	-0.027014593
156	0xbd2e61dc	-0.042573795
157	0xbca6567e	-0.020304915
158	0x3d82e0ff	0.06390571
159	0xbcb6a8c4	-0.02229727
160	0xbc82d488	-0.015970483
161	0xbd092bdc	-0.033489093
162	0x3d178935	0.036996085
163	0xbd4b3a2d	-0.049616028
164	0x3d798c8e	0.06092506
165	0xbc8611cd	-0.01636591
166	0xbd59d95b	-0.053185802
167	0xbc6aa23d	-0.014320907
168	0xbd4181cc	-0.047242925
169	0xbd40a7c1	-0.047034983
170	0xbd69710e	-0.056992583
171	0xbcd99ff3	-0.026565528
172	0xbc99feae	-0.018798199
173	0x3dbc2258	0.09186238
174	0xbc2cec2e	-0.0105543565
175	0xbcedd333	-0.029031372
176	0x3c32a4a8	0.010903515
177	0x3d2a18fb	0.04152773
178	0x3d8069ff	0.06270217
179	0xbc2ff9f7	-0.010740749
180	0x3cd9566e	0.02653047
181	0xbd608dda	-0.05482278
182	0x3c20b4b5	0.009808709
183	0xbd574cfb	-0.05256365
184	0xbcbc7f83	-0.023010021
185	0x3c327cd7	0.010894022
186	0x3da0d390	0.07852852
187	0xbd2589ed	-0.04041474
188	0xbd9af16c	-0.07565579
189	0x3d9dc0c3	0.07702782
190	0x3b7faca6	0.0039012819
191	0x3cd2da88	0.02573897
192	0x3bcf6ba9	0.0063299728
193	0xbdff3b0d	-0.12462435
194	0xbe4aa6f6	-0.19790253
195	0x3d9184cd	0.07105408
196	0xbd486d76	-0.048932515
197	0x3d75b3d4	0.05998595
198	0xbc48f6b9	-0.0122658545
199	0xbbb9558b	-0.0056559495
200	0xbe202025	-0.15637262
201	0xbb0d56ff	-0.0021566746
202	0x3d7da859	0.061928127
203	0x3d3a719e	0.04551851
204	0xbdfe3f71	-0.12414444
205	0xbd9db32d	-0.07700191
206	0x3d058da7	0.032605793
207	0xbd9c0e0e	-0.07619868
208	0xbda86b6c	-0.08223614
209	0x3da291c5	0.079379596
210	0x3d46d0de	0.048539035
211	0x3d479fa0	0.048736215
212	0x3c284a36	0.0102715995
213	0x3dc954b3	0.09830608
214	0xbd7713c4	-0.060321584
215	0xbdbaa337	-0.09113162
216	0xbe1385a9	-0.14406456
217	0xbe0da2ab	-0.13831584
218	0x3cc69d33	0.02424488
219	0xbe0716c4	-0.13192278
220	0xbd7cf0b8	-0.061753005
221	0x3d570146	0.05249145
222	0x3cd0017d	0.025391335
223	0xbe17a266	-0.14808044
224	0xbd8a64c3	-0.067575
225	0xbe40883e	-0.18801972
226	0xbdfff88a	-0.12498577
227	0xbdc4fe8e	-0.09618865
228	0xbda391e5	-0.079868115
229	0x3d24dd71	0.040250245
230	0xbd511e55	-0.051054318
231	0xbd806f27	-0.062712006
232	0xbd1cba80	-0.038263798
233	0x3da5295c	0.08064529
234	0xbbad64bb	-0.005291549
235	0xbc1dcd29	-0.0096314335
236	0x3c47500d	0.012165082
237	0xbd0f62dc	-0.03500639
238	0x3d8b77eb	0.06809982
239	0xbda8145f	-0.082070105
240	0xbdb53402	-0.0884781
241	0xbdf09520	-0.11747193
242	0xbb3a25ea	-0.0028403946
243	0xbd5de797	-0.05417594
244	0xbd9b2adc	-0.07576534
245	0xbd6247c9	-0.05524424
246	0xb8fa92c1	-0.00011948264
247	0xbcc97326	-0.02459104
248	0xbdae77db	-0.08518954
249	0xbe13ebf5	-0.14445479
250	0xbd9527b4	-0.072829634
251	0xbd7dfa05	-0.062006015
252	0xbd9069c2	-0.07051422
253	0x3db11bc4	0.08647874
254	0x3d1a9dd6	0.03774818
255	0x3d8eac39	0.069664426

fc.0.weight f4 [64, 64]
0	0xbcb763b0	-0.022386402
1	0xbdc0039d	-0.09375689
2	0x3c88e989	0.01671292
3	0x3e1b1a92	0.15146855
4	0x3dd66852	0.10469116
5	0xbc7c6291	-0.015404359
6	0xbda1d7cf	-0.0790249
7	0x3d5e0a40	0.054208994
8	0x3dbc1119	0.091829486
9	0x3dcd41a2	0.10022284
10	0x3b86e497	0.0041166055
11	0xbcea8ab4	-0.028630592
12	0xbdce8c79	-0.10085387
13	0x3e21d3b2	0.15803412
14	0xbc1f179a	-0.009710217
15	0xbdecae58	-0.11556691
16	0x3dc8d11e	0.09805511
17	0xbdbbfaa2	-0.09178664
18	0x3c8738a5	0.016506502
19	0xbd1947ea	-0.0374221
20	0x3d47ee4f	0.048811253
21	0xbe53360f	-0.2062609
22	0xbc2a9916	-0.010412475
23	0x3e0edd3a	0.13951579
24	0xbe118408	-0.14210522
25	0xbddc95dd	-0.10770772
26	0x3d0bf4f0	0.034169137
27	0xbd47b88c	-0.048759982
28	0xbdd57ca3	-0.10424163
29	0xbc971122	-0.018440787
30	0xbd29c732	-0.041449733
31	0x3d44cfe7	0.048049834
32	0xbd5f6c09	-0.05454639
33	0x3daece45	0.085354365
34	0xbd423833	-0.047416877
35	0x3de21506	0.11039166
36	0x3c033d5b	0.008010234
37	0x3d9fa7f3	0.07795706
38	0x3c65dbc0	0.014029443
39	0xbc05c15c	-0.008163776
40	0x3d3da5e3	0.04630078
41	0xbc2dd09d	-0.010608819
42	0x3d938bc3	0.07204392
43	0x3cdfe292	0.027329717
44	0x3d843182	0.06454755
45	0x3d6a1bd1	0.057155434
46	0xbde01268	-0.10941011
47	0x3db46a8b	0.08809384
48	0xbd5cbac8	-0.053889066
49	0x3d1bb4fb	0.038014393
50	0x3d11ac78	0.03556487
51	0xbda2ea4b	-0.07954844
52	0xbdb2a3cc	-0.08722648
53	0x3dfe6172	0.1242093
54	0x3d8e6511	0.06952871
55	0x3d64b5c4	0.055837408
56	0x3c84a61d	0.01619249
57	0xbd900234	-0.0703167
58	0xbe082fcf	-0.13299488
59	0xbdb5a2cd	-0.088689424
60	0xbd869034	-0.06570473
61	0x3e01230b	0.12611024
62	0xbdeb824f	-0.11499464
63	0x3cd230a9	0.025657969
64	0xbd568762	-0.052375205
65	0x3c9f9014	0.019477881
66	0x3d0f8bb8	0.035045356
67	0x3e2d87aa	0.16946283
68	0x3d7cb7f9	0.061698887
69	0x3e288ee2	0.16460755
70	0xbd964247	-0.0733686
71	0x3dbf8289	0.093510695
72	0xbd08bb33	-0.033381652
73	0xbd65b26d	-0.056078363
74	0xbde7ba54	-0.11314836
75	0xbce4e868	-0.027942851
76	0xbdefa92b	-0.11702188
77	0x3d89ad49	0.06722505
78	0xbc333fb8	-0.010940485
79	0xbceeee0c	-0.029166244
80	0x3b7a459b	0.003818846
81	0xbe1e4a6d	-0.15458079
82	0x3c5604b4	0.013062645
83	0x3d168186	0.036744617
84	0x3d8d53b4	0.06900731
85	0x3cad558f	0.021158962
86	0x3dc381ce	0.09546243
87	0xbda049c7	-0.07826572
88	0xbbbe7636	-0.0058124317
89	0x3e03177d	0.12801929
90	0xbe1e3075	-0.15448172
91	0xbd9404c9	-0.07227475
92	0x3c60acfe	0.01371312
93	0xbde31aac	-0.11089072
94	0x3da4b6dc	0.0804269
95	0xbdda06c9	-0.106458254
96	0x3d9fcfd3	0.07803311
97	0x3da36e10	0.07979977
98	0x3cf41c63	0.029798692
99	0x3df2c846	0.118546054
100	0xbcd1e5c3	-0.025622254
101	0x3d25bbfa	0.04046247
102	0x3d5e9a8f	0.054346617
103	0x3e1399e9	0.14414181
104	0x3db5d09a	0.08877678
105	0x3d875c1d	0.06609366
106	0x3dd4a803	0.10383608
107	0x3d45a145	0.0482495
108	0xbd2e7487	-0.042591598
109	0x3dcea5a2	0.10090186
110	0x3d02664c	0.03183584
111	0xbd36bc05	-0.044612903
112	0xbddad05d	-0.106842734
113	0x3b91666b	0.004437258
114	0x3c75ed96	0.015010258
115	0xbe03d40c	-0.12873858
116	0x3d2225d7	0.039586868
117	0x3d779c62	0.060451873
118	0xbd2ad6d9	-0.0417088
119	0x3d9aa5a9	0.075511284
120	0x3e0e52ad	0.13898726
121	0x3da594fd	0.08085058
122	0x3c9b4008	0.01895143
123	0xbd050a62	-0.032480605
124	0x3cbfb3db	0.023401191
125	0x3c118e6d	0.008884055
126	0xbd8bc6e7	-0.06825047
127	0x3d2c01f9	0.04199407
128	0xbc967db8	-0.018370494
129	0xbd8167e0	-0.06318641
130	0xbda6a846	-0.08137564
131	0x3d993558	0.07480878
132	0x3d2224d4	0.039585903
133	0xbb758400	-0.0037462711
134	0xbdaad3bc	-0.083411664
135	0xbd586e58	-0.052839607
136	0x3d5e6e5c	0.054304466
137	0xbd7dad44	-0.061932817
138	0x3d983090	0.074311376
139	0x3c1b4010	0.009475723
140	0x3dce5d74	0.100764185
141	0x3daa7d90	0.083247304
142	0xbc628420	-0.013825446
143	0xbd728940	-0.059212923
144	0xbdf34a58	-0.11879414
145	0xbdef0368	-0.116705716
146	0x3cd61678	0.02613376
147	0x3d1527a0	0.036414742
148	0xbd68a80c	-0.056800887
149	0xbd4857a8	-0.04891172
150	0xbd66455c	-0.05621849
151	0xbd80f990	-0.062976
152	0xbd9113e0	-0.07083869
153	0x3d88e350	0.066839814
154	0x3d6ba65c	0.0575317
155	0xbd747e04	-0.05969049
156	0xbde926b0	-0.11384332
157	0x3d4f90c8	0.050675184
158	0xbc3c8720	-0.011506826
159	0xbd4a84c8	-0.049443036
160	0xbb997420	-0.0046830326
161	0xbdb3c45c	-0.08777687
162	0xbcfa0280	-0.03051877
163	0x3d999cd4	0.07500616
164	0xbda71c0a	-0.08159645
165	0xbc2e02f0	-0.010620818
166	0xbd94825c	-0.072514266
167	0x3d6aee88	0.057356387
168	0xbd982c94	-0.074303776
169	0xbd5a2f48	-0.053267747
170	0x3d9ccf18	0.076566875
171	0xbd82d0fa	-0.06387515
172	0xbcb32f98	-0.02187328
173	0x3de937f8	0.11387628
174	0x3d124874	0.035713628
175	0x3cb65630	0.022257894
176	0x3d475fcc	0.048675343
177	0x3dfcfe1c	0.12353155
178	0xbdc1d52e	-0.09464489
179	0xbdaf1c84	-0.08550361
180	0xbdb3d0a8	-0.087800324
181	0x3dfa2e8c	0.12215909
182	0x3de17c16	0.11009996
183	0xbddebd52	-0.10875954
184	0x3c817f70	0.015807837
185	0x3dfdf35e	0.12399934
186	0xbd078984	-0.03309013
187	0x3d579190	0.052629054
188	0x3da414aa	0.08011754
189	0xbd6ebff0	-0.058288515
190	0xbc2d1810	-0.010564819
191	0x3d975a62	0.07390286
192	0xbda6363f	-0.08115815
193	0xbddd2e45	-0.10799841
194	0x3c863b7d	0.016385788
195	0x3dff00f1	0.124513514
196	0xbcc20a94	-0.023686685
197	0xbb940b19	-0.0045179245
198	0x3d44c59d	0.04804002
199	0xbc788058	-0.015167318
200	0xbdfffbc3	-0.124991916
201	0xbd537ed0	-0.05163461
202	0x3bc409e7	0.0059826258
203	0x3d83f8b4	0.06443921
204	0xbd81376c	-0.06309399
205	0x3cb939b5	0.022610525
206	0xbe28d1ca	-0.16486278
207	0x3e056d08	0.13029873
208	0xbc697b11	-0.014250533
209	0xbdbba3d8	-0.0916211
210	0xbe15b5b6	-0.14620098
211	0x3c9b157d	0.018931145
212	0xbd689799	-0.0567852
213	0xbcccd7ae	-0.025005188
214	0x3e0ddf7c	0.13854784
215	0xbc6d65f7	-0.014489642
216	0x3d899b28	0.06719047
217	0x3de23412	0.11045088
218	0xbcab11b7	-0.02088247
219	0x3dccec14	0.10005966
220	0xbe018292	-0.12647465
221	0x3dac0179	0.083987184
222	0xbe079627	-0.13240872
223	0x3ca1d412	0.019754443
224	0xbdcd95c1	-0.10038329
225	0xbc8c4d93	-0.017126834
226	0x3d6ecc1c	0.058300123
227	0xbd9f63fa	-0.07782741
228	0xbd806298	-0.06268805
229	0x3de35a74	0.11101237
230	0x3e0aed3c	0.1356706
231	0xbdb7eb3e	-0.08980416
232	0xbe0ad028	-0.13555968
233	0xbe0ecb47	-0.13944732
234	0x3dfed319	0.124426074
235	0xbde2ca8b	-0.11073788
236	0x3d604f5b	0.05476318
237	0xbc38ec4b	-0.011286805
238	0x3c145ec5	0.009055798
239	0xbe049160	-0.12946081
240	0xbdeb93f2	-0.11502828
241	0xbda73fbc	-0.08166453
242	0xbd8e2e25	-0.06942395
243	0xbde32db0	-0.110926986
244	0xbcdf678b	-0.027271053
245	0x3cc36b41	0.023854854
246	0xbd5e2f82	-0.054244526
247	0x3d2da54b	0.042393964
248	0xbd08428d	-0.033266593
249	0xbe29eb52	-0.16593674
250	0xbd922677	-0.07136243
251	0xbe04af62	-0.12957528
252	0x3e08ca7d	0.13358493
253	0x3e0458b1	0.12924458
254	0x3d3c2535	0.04593392
255	0xbda959c5	-0.08269075

fc.0.bias f4 [64]
0	0x3d92ca04	0.07167438
1	0x3d05230b	0.032504123
2	0xbda64334	-0.08118287
3	0xbc363272	-0.011120426
4	0x3d7b0381	0.06128264
5	0xbd2be88f	-0.041969832
6	0xbd4cb198	-0.049974054
7	0xbdacb020	-0.08432031
8	0xbd955d6e	-0.07293211
9	0xbd78adc6	-0.0607126
10	0xbd88d846	-0.06681876
11	0x3de3d77a	0.11125083
12	0xbc0f1150	-0.008732155
13	0x3c98655b	0.018603018
14	0x3d86b382	0.06577207
15	0x3dde4bd2	0.10854305
16	0xbb0adddc	-0.0021189367
17	0xbdbb4ca0	-0.091454744
18	0x3d6be626	0.057592534
19	0xbd508753	-0.050910305
20	0x3d991399	0.07474441
21	0xba807132	-0.000979936
22	0xbce2ebad	-0.02770027
23	0xbd0b3eca	-0.033995427
24	0xbd6f4a10	-0.05842024
25	0xbd780856	-0.060554825
26	0xbd39d44a	-0.04536847
27	0x3d54d7ef	0.051963743
28	0xbd581880	-0.05275774
29	0xbdeaf83a	-0.11473127
30	0xbd8cc51c	-0.06873533
31	0xbc673618	-0.014112018
32	0x3b4be2a5	0.0031110432
33	0x3e0d9019	0.138245
34	0x3de81dc7	0.113338046
35	0x3d9225fb	0.071361504
36	0x3c721f6a	0.0147779975
37	0xbc47734e	-0.012173487
38	0xbd4d8a52	-0.05018074
39	0xbdf13a60	-0.11778712
40	0x3d9c166e	0.076214656
41	0xbd4940ec	-0.04913418
42	0xbdf7539c	-0.12076494
43	0x3d5942f1	0.053042356
44	0x3ce57772	0.028011058
45	0xbd4444a5	-0.047917027
46	0xbdb6beac	-0.089230865
47	0xbb99ee43	-0.0046975925
48	0xbccbeddb	-0.024893692
49	0x3d6e6eb1	0.058211032
50	0x3dfbcb30	0.12294614
51	0xbd4d7318	-0.05015859
52	0xbda539fa	-0.08067699
53	0x3d9ec4c4	0.07752374
54	0xbdd21f8c	-0.10259923
55	0x3c36e3fa	0.011162752
56	0xbd8fd5ec	-0.07023224
57	0xbd116b16	-0.035502516
58	0xbd45bee0	-0.048277736
59	0xbcec726f	-0.02886316
60	0xbd7cdd73	-0.061734628
61	0xbc9f0712	-0.019412551
62	0xbd6fb3d4	-0.058521107
63	0x3d1b234e	0.037875466

q1.weight f4 [1, 64]
0	0xbdf634e8	-0.1202181
1	0xbc7d0cd8	-0.015444957
2	0x3d34a5ac	0.04410331
3	0x3e05b17b	0.13055985
4	0x3da0a36f	0.078436725
5	0xbd87c0d6	-0.066285774
6	0xbc813c80	-0.015775919
7	0xbc208810	-0.009798065
8	0x3cc663c8	0.024217501
9	0x3dd61d31	0.104547866
10	0xbdc9135c	-0.09818146
11	0x3d68bda4	0.05682148
12	0xbdd220c6	-0.10260157
13	0xbdadd6d7	-0.08488243
14	0xbd367983	-0.044549476
15	0x3d86c316	0.065801784
16	0xbd3a8cbe	-0.04554438
17	0xbdd106e2	-0.10206391
18	0x3cf9c244	0.03048814
19	0xbb968311	-0.004593261
20	0xbca71b7b	-0.020398846
21	0x3cf31ac9	0.029675858
22	0x3c987b8b	0.018613597
23	0xbc80c68b	-0.015719673
24	0x38e7c000	0.00011050701
25	0xbd64bb8c	-0.05584292
26	0x3e236645	0.15956981
27	0x3d151254	0.036394432
28	0x3d54f0dc	0.051987514
29	0x3d3f3e78	0.046690434
30	0x3d43aff4	0.047775224
31	0x3d361038	0.04444906
32	0x3d7bcf9b	0.061477285
33	0xbd31488e	-0.043282084
34	0x3cd0c6ab	0.025485357
35	0xbc231c1d	-0.009955433
36	0x3d3e9a42	0.04653383
37	0xbdfc69f4	-0.123248965
38	0x3d35abc0	0.044353247
39	0x3d148088	0.03625539
40	0xbd21259b	-0.039342504
41	0x3cd09890	0.025463372
42	0xbd5f6010	-0.05453497
43	0xbd525599	-0.051351164
44	0x3da13a9e	0.078725085
45	0x3e2214d6	0.15828261
46	0xbd75fdf0	-0.060056627
47	0xbdcbf80c	-0.099594206
48	0x3dd44f57	0.103666954
49	0xbd89b713	-0.06724372
50	0xbdea68a2	-0.114457384
51	0xbd791715	-0.06081303
52	0xbd3b78c0	-0.045769453
53	0xbdcb12c4	-0.09915689
54	0x3d758e4c	0.059950158
55	0xbdb1c909	-0.086809225
56	0x3dd0c21a	0.10193272
57	0xbe2709fe	-0.16312405
58	0xbd945148	-0.07242066
59	0xbe63b3f0	-0.2223661
60	0x3e6ea33a	0.23304453
61	0x3d287c40	0.04113412
62	0x3c848938	0.016178712
63	0xbde94cbf	-0.11391591

q5.weight f4 [1, 64]
0	0x3d87e0c7	0.0663467
1	0xbd1701cd	-0.03686695
2	0x3d2187ec	0.039436266
3	0xbd585c80	-0.05282259
4	0xbdd54d22	-0.104151025
5	0xbd4749fc	-0.04865454
6	0x3dd7df64	0.10540655
7	0xbcdec860	-0.027195156
8	0x3dd13500	0.10215187
9	0x3d8f0ba3	0.069846414
10	0x3dc0ba1c	0.094104975
11	0xbdc32703	-0.09528925
12	0x3cf7a2ec	0.030229054
13	0x3d6f2756	0.058387123
14	0xbd8106a7	-0.06300097
15	0xbe1078c0	-0.14108562
16	0xbd1d3b28	-0.038386494
17	0xbdbb466c	-0.09144291
18	0xbd8ac488	-0.067757666
19	0x3c4c42cd	0.012467098
20	0xbdc2c8f8	-0.09510988
21	0xbd0d395e	-0.034478538
22	0x3d8bc717	0.06825083
23	0xbcda59d7	-0.026654167
24	0xbd9f8496	-0.07788961
25	0x3d2ccce0	0.04218757
26	0x3d0e309e	0.034714334
27	0xbda77964	-0.0817745
28	0xbd102d98	-0.03519973
29	0xbd2f3540	-0.042775393
30	0x3d804f36	0.06265108
31	0x3d273029	0.040817413
32	0x3d2fea68	0.042948157
33	0xbe1ba719	-0.15200461
34	0x3cabcdf3	0.020972228
35	0x3d3efa24	0.04662527
36	0x3cd24812	0.025669131
37	0xbd30d15f	-0.04316842
38	0x3db028cd	0.08601532
39	0xbdf209d6	-0.11818282
40	0xbdf4422f	-0.11926686
41	0x3de2c936	0.11073534
42	0xbda1b69e	-0.078961596
43	0x3b0586b0	0.002037447
44	0xbd9285f2	-0.07154454
45	0xbdcfd3db	-0.1014783
46	0x3d8cde22	0.06878306
47	0xbdb12971	-0.086504824
48	0x3c9672f3	0.018365359
49	0xbd14cbe9	-0.036327276
50	0xbc056af8	-0.008143179
51	0x3ddfc65d	0.10926507
52	0x3ac38b80	0.0014918894
53	0xbde48f56	-0.11160152
54	0x3c948540	0.018129945
55	0x3ca6bda9	0.020354109
56	0x3d48c70e	0.04901796
57	0xbddc7c17	-0.10765856
58	0xbded2d88	-0.1158095
59	0xbe29ceff	-0.16582869
60	0xbb6a3d4d	-0.0035742105
61	0xbd1a0a84	-0.037607685
62	0xbc816b18	-0.015798137
63	0xbdfab3f9	-0.12241358

q10.weight f4 [1, 64]
0	0xbd9c5819	-0.07633991
1	0x3d7e832f	0.062136825
2	0xbd78b410	-0.060718596
3	0x3d75b30d	0.05998521
4	0xbe0a5d1c	-0.13512081
5	0xbd4a5f4a	-0.04940728
6	0xbd4ae124	-0.049531117
7	0x3db80620	0.08985543
8	0xbba679e0	-0.0050804466
9	0x3ad56065	0.0016279338
10	0x3df2be7a	0.11852737
11	0x3bcc390b	0.006232386
12	0xbdd6ce81	-0.10488606
13	0x3d5e6645	0.05429675
14	0xbce64e28	-0.02811344
15	0x3cfe3bdb	0.0310344
16	0x3da31a11	0.07963956
17	0x3d8f0d64	0.06984976
18	0x3d086832	0.033302493
19	0xbd897c75	-0.067131914
20	0xbca87826	-0.020565104
21	0x3c8fc71e	0.017551001
22	0x3d40ceaf	0.04707211
23	0x3cec786f	0.028866021
24	0x3c6ab3f0	0.014325127
25	0xbd57c102	-0.0526743
26	0x3bf3ec0e	0.0074439114
27	0x3cfd35f7	0.030909522
28	0xbd3ec87c	-0.046577916
29	0x3d442ab0	0.047892272
30	0x3cbe9128	0.023262575
31	0xbc012f84	-0.007884864
32	0xbd3ace00	-0.045606613
33	0xbdef6589	-0.11689288
34	0xbdec7268	-0.11545259
35	0xbdefeb5c	-0.11714813
36	0xbd10cbcc	-0.035350606
37	0xbcb64c81	-0.022253277
38	0x3d1c31fe	0.038133614
39	0xbd128b74	-0.035777524
40	0x3cfa6029	0.03056343
41	0xbd67f9fc	-0.056634888
42	0xbde0b29c	-0.10971567
43	0xbd8e45c8	-0.069469035
44	0x3c6cf645	0.014463012
45	0x3d443a85	0.04790737
46	0xbd5c1ac0	-0.05373645
47	0xbd4d0897	-0.05005702
48	0x3c788fc3	0.015170994
49	0x3c253850	0.010084227
50	0xbdcdd72e	-0.10050808
51	0x3c1e6e21	0.009669811
52	0xbd8c7b62	-0.06859471
53	0x3d2c7100	0.042099953
54	0xbdf034a8	-0.117287934
55	0x3c7e0bbe	0.015505729
56	0x3d081883	0.0332265
57	0xbd0851d5	-0.033281166
58	0xbda6dca4	-0.081475526
59	0xbb6e9b39	-0.0036408438
60	0x3dca1821	0.098678835
61	0x3c829df6	0.015944462
62	0xbd8d69b0	-0.06904924
63	0xbc7579c4	-0.0149826445
