cvar_prediction/experiments/qrnn_model.pt (torch, 41013 bytes, 7 tensors)

net.0.weight f4 [128, 5]
00000000: 03a3 1c3d 6b0b b4be 9b2f 893e e313 413e
00000010: ab02 bcbe 0057 a0bd cceb 5e3e 7c3e 5ebe
00000020: 10fc d73d 6898 0a3e 8b42 1c3f cc1c ecbd
00000030: 4f11 82be 226e d3be 8da2 bdbe 5905 4dbe
00000040: 3b16 f0be ceb2 77bd 603a de3e 282f 2fbd
00000050: bf0d 873f e793 ce3e 64ee 013d 1115 ccbe
00000060: 44bb 96bd b494 063f 6d29 aebe 40ad 8b3e
00000070: 9ad8 a53e a05d 963e a5eb bebe 707c 173e
00000080: 6cdf 203e 34c0 183e 189d 973d b0ce 7d3f
00000090: fea6 903e 75c0 bcbd 09e6 34be bfae d2be
000000a0: 122d f43e 0739 6abe 6ad8 00be 1caf 52be
000000b0: 06c1 8abd b4d9 173f e833 433d d71f 10be
000000c0: 37d1 9f3e 84e0 e5bd ad43 c2be 34a6 04be
000000d0: f061 8a3c e788 b7be 4cdc bf3e 0868 70be
000000e0: 3b06 46be 921f 9fbe 5bcb d0bd ab24 c5be
000000f0: 9731 8b3e 831f 6b3d e00d e2be 3d6c d6be
00000100: 0715 0ebe fa00 1c3f a4fd 2abe 50f2 21be
00000110: 1f92 623e 2740 b53e 0698 9c3f c870 aa3e
00000120: 4516 c6bd 2e8f 8c3d b1c8 313d bee7 66be
00000130: 58af 6abe 52f1 07be 24e4 34be d8cb 86be
00000140: 84d2 393e ca18 d8be 9ed2 25be e42d 2cbe
00000150: b434 d23e 42ed 7bbf c4a9 1abe 2a25 e7bc
00000160: 2fa2 f53d 5182 583e 0222 943d af2b 2bbe
00000170: 23d4 23be 6876 bbbe f286 8a3e e3e6 d8be
00000180: 031f 86bc 5e61 973e b0af d3be 3a9c a4be
00000190: 64dc 0e3e 9ce1 5c3e dfab d3be b458 afbd
000001a0: f4c5 e5bd 846c 433f 6782 023e 66bf 82be
000001b0: 2639 443d 4e68 aa3e 3277 193e 7dc4 d2be
000001c0: c505 623e bcb4 ab3e d2f9 563e 7c25 95be
000001d0: a2ac 1ebe ac5a e03e 4e07 a3be ee8d 1cbe
000001e0: 0091 88ba 32d3 9cbe 3650 31be 581a acbd
000001f0: 8ce9 303e c718 2ebf 1901 903e 03e0 d63e
00000200: 61a8 54be c29e a53e 0d09 70bf 60d3 af3e
00000210: 6110 923e d159 f2bd ef77 94bd 90ef ba3c
00000220: 3324 b5be 1093 0a3e 1402 a43e a8e2 be3e
00000230: d637 823f a8fe f63d 87d7 0a3e fd99 9bbe
00000240: 3ccf 4bbe 9eb4 a3be 4619 ba3e 9ca6 793e
00000250: 7c67 10be 60be 17bc 17a0 8e3d 1047 493e
00000260: 9fc5 debe c639 47be 455f 6cbe ea72 dfbe
00000270: 5133 a2be 947a a73d 426f 4bbe ccc6 9f3d
00000280: c848 d53e f4cd be3b cf22 ecbe 9127 d73c
00000290: e1da 243d 7291 a03e 69ef 5bbe 680d 2abd
000002a0: 2289 cbbe f031 723d ad9a 2abf 3f00 36be
000002b0: 7ed2 71bd 0057 2b3e 8ff0 b5be 696f cb3e
000002c0: 4e8d d4be 9a87 b43d 9a01 d9be 7198 2abe
000002d0: 0dc4 b63e f29a 41be 971c ba3e 947a d8be
000002e0: 38a6 9a3e 1aee ce3e 60da 19be 15f5 173e
000002f0: ae63 bcbd 953c 963e 9727 283f eecf aebe
00000300: b9f8 99be d03f b2bd 87e7 513e e64c cd3e
00000310: 2425 61be 6cef 96be 1949 cdbe 4ab2 203d
00000320: e838 56bd 61fa b9be c8e9 58bd 52bb c23e
00000330: 645b 2a3e 0d35 833f 5473 66bd f9bd b7be
00000340: 4bdc f7bd ef44 9cbe e7d7 dbbe 7e7a cb3e
00000350: 98cf 273e 1d84 4bbe ffee 923e c00b 62bd
00000360: 94bf 243e 3031 2dbe 08bb 4ebd 626d c53e
00000370: 00b4 9bbe 465d eabe d513 a03e c830 2c3e
00000380: fb92 58be 20d0 4b3c 1881 1d3e 8980 d3be
00000390: 3ac3 c5be 1c94 2c3e a464 d63e bcdd b6bd
000003a0: ac90 443e 5035 c33e b836 b3be 83c5 733e
000003b0: 8ff7 1d3e 8c62 87be b872 803e 482f 6abe
000003c0: fbb2 6cbe 38fa 8c3d ac3b f3bd 0066 193e
000003d0: 7825 90be d216 2a3f 208b b73e 7a15 bf3e
000003e0: 3d23 8a3e 9baf 75be e408 87bd 2c9e 6b3e
000003f0: ebae 56be 10f5 253e 6cc5 183e 9fe6 d0be
0.038241398 -0.3516496 0.26794133 0.18855242 -0.36720785 -0.07829094 0.21769637 -0.21703523
0.10546124 0.13534701 0.61039037 -0.1152893 -0.2540383 -0.41294962 -0.3703808 -0.20021571
-0.4689196 -0.060473256 0.43403912 -0.04276958 1.055107 0.40347216 0.031721488 -0.39859822
-0.07359937 0.5257065 -0.3401598 0.27280617 0.32391816 0.29368305 -0.37289158 0.14793563
0.15710229 0.1491707 0.0740301 0.99143505 0.28252405 -0.09216396 -0.17665876 -0.41148946
0.47690636 -0.22873317 -0.12582555 -0.20574611 -0.067750975 0.59316564 0.047656924 -0.14074646
0.31214306 -0.112244636 -0.37942258 -0.12954026 0.016892403 -0.35846636 0.3747276 -0.23477185
-0.19338314 -0.31078774 -0.10195037 -0.38504538 0.27186272 0.0574031 -0.4415121 -0.41879454
-0.13875209 0.6093899 -0.16698319 -0.15815091 0.22126053 0.35400507 1.2233894 0.3328917
-0.09672216 0.06863247 0.043404285 -0.2254934 -0.22918451 -0.1327565 -0.17665154 -0.26327395
0.18146712 -0.42206413 -0.16193625 -0.16814381 0.41055834 -0.984089 -0.15103823 -0.028215963
0.11993825 0.21143462 0.07233049 -0.16715883 -0.15998892 -0.36613774 0.2705608 -0.42363653
-0.01637221 0.29566473 -0.41344976 -0.3215044 0.1395126 0.21570438 -0.41342065 -0.08561841
-0.11219397 0.76337457 0.12745057 -0.2553665 0.047906063 0.33282703 0.14986876 -0.41165534
0.22072513 0.33536327 0.20993736 -0.2913016 -0.15495542 0.43819177 -0.3184151 -0.15288517
-0.001041919 -0.3062988 -0.17315754 -0.08403462 0.17276591 -0.6800656 0.28125837 0.41967782
-0.20767356 0.32347685 -0.9376381 0.34340954 0.2852812 -0.11833537 -0.07249438 0.02281931
-0.3537918 0.13532662 0.32032835 0.372823 1.017329 0.120602906 0.1355878 -0.3039092
-0.19903272 -0.31973737 0.36347407 0.24379963 -0.14101976 -0.0092616975 0.069641285 0.19656014
-0.43510148 -0.19455633 -0.23083217 -0.4364236 -0.31679776 0.08177677 -0.1986666 0.07801589
0.4165709 0.0058228914 -0.46120307 0.026263984 0.0402478 0.31360966 -0.21478046 -0.04151669
-0.39753062 0.059129655 -0.66642267 -0.17773531 -0.05903863 0.16732407 -0.35535094 0.39733437
-0.41514057 0.088149264 -0.42384034 -0.16659714 0.3569645 -0.18906763 0.36349937 -0.4228102
0.3020494 0.40416032 -0.1502471 0.14839585 -0.091987 0.29343095 0.6568541 -0.34143013
-0.30072573 -0.087035775 0.20498477 0.4009773 -0.21986824 -0.2947954 -0.40094832 0.03923253
-0.052300364 -0.36323836 -0.052957326 0.3803354 0.16636425 1.0250565 -0.05626233 -0.35887125
-0.121025644 -0.30521342 -0.42938158 0.39741892 0.16387784 -0.19874616 0.28697965 -0.055186987
0.16088706 -0.16913295 -0.050471336 0.38560015 -0.30410767 -0.45774287 0.3126513 0.16815484
-0.21149819 0.012439758 0.15381277 -0.41309002 -0.3862551 0.16853374 0.41873658 -0.08929011
0.19195813 0.38126612 -0.35002685 0.23805813 0.15426467 -0.26442373 0.25087523 -0.22869599
-0.2311515 0.06883663 -0.11876616 0.14980316 -0.28153586 0.6644107 0.3584833 0.37321073
0.2698001 -0.2399277 -0.065934926 0.23009557 -0.20965163 0.16206765 0.1491906 -0.4080095

net.0.bias f4 [128]
00000000: d871 c53e 00d7 0bbd 8bdc bc3e 4695 ab3e
00000010: 72f9 d23e bba7 493e 4218 80be aff6 6e3e
00000020: 5fbd 7a3e 1d84 c23e a02d 34bd 040c 923e
00000030: 7b16 a23e 6b98 7d3e 3bcb 473d 913b 8fbe
00000040: aae2 18be 525d 8c3e 1c5f c53e 57c9 ddbd
00000050: 65c7 5abe 4b54 a33e 8d32 a03e 82be 08be
00000060: c2db 78be 87e4 1d3e 00c3 b63e a5cc 8bbe
00000070: d1a0 1c3e 288b d3bd 0cfc f23d 6302 c93d
00000080: 0690 2b3e 2448 80be 7e9a 0dbe 0ed0 ce3b
00000090: ff09 aa3e 2ba0 c93e 30bb 323e c0a0 803e
000000a0: 164c d0be 253c d33e 7626 093e e819 31bd
000000b0: 2e0c a43e 7864 49bd c069 84be bb0e 7cbd
000000c0: 74ac c2be 4cfa 28bd 60f3 a5be 3fc5 b3ba
000000d0: cbf8 d33d 0d88 303e 6e86 04be 987a 923e
000000e0: af7d 993e 7e0e 2ebe a0dd be3d 9f21 333e
000000f0: 8381 4ebe 1e6c 31be e893 85bd 0b1e adbe
00000100: 8cff cc3d e261 a4be ba47 983e bd5b f93d
00000110: 4473 7abe 2035 6c3e 6755 513e 5102 213d
00000120: 12e4 03be 8507 b8be 1a4e 61be cc09 723d
00000130: 4aa1 a43e a4aa 933e 6038 d3bd 4b56 0f3d
00000140: 545a ad3d 8e26 ca3d 7b34 663e 4a91 283d
00000150: d1ef 933e 71ff 65be 89c1 873e ff4c aa3d
00000160: 58ea 873d 6c7a 85be 1653 cf3e 14c2 a23d
00000170: 2405 9abe 3450 2dbe 7594 d03d 6acb 703c
00000180: c04a e3bc 5c5a e1bd c27e d2be 7dc2 60be
00000190: 4160 763e b84c fe3d d4bb 993e 3cfe c33e
000001a0: 7fb5 2f3d 18c3 5c3e 50b0 c83d 60b3 9abe
000001b0: 983a 973e fec4 4cbe f9d6 d7be 5826 3ebe
000001c0: 226d acbe e99d b4be 396b bcbc 99d0 3b3e
000001d0: d1ee c2be 7282 09be 6a5a 6b3e cb1c 0e3e
000001e0: 447d 833e a8a5 cabe 8267 ddbe d3e5 4ebe
000001f0: 925c ac3d fa40 83be 601a 5fbe e69e c1be
0.38563418 -0.034140587 0.3688701 0.33512324 0.41205937 0.1969289 -0.25018507 0.2333629
0.24486302 0.3799142 -0.043988824 0.28524792 0.31657776 0.24765174 0.0487778 -0.27975133
-0.14930215 0.27414948 0.38549125 -0.10829418 -0.21365125 0.31900248 0.31288567 -0.13353923
-0.24302581 0.15419208 0.35695648 -0.2730457 0.15295722 -0.10329276 0.118644804 0.09814908
0.1675416 -0.2505504 -0.13828465 0.006311423 0.3321075 0.3938001 0.17454219 0.25122643
-0.4068305 0.41256824 0.13393578 -0.043237597 0.32040542 -0.04916808 -0.2586193 -0.061537486
-0.38022196 -0.041254327 -0.32412243 -0.00137154 0.10350188 0.17239399 -0.12941906 0.28609157
0.299787 -0.16997716 0.09319615 0.17493294 -0.20166592 -0.173264 -0.065223515 -0.33811983
0.10009679 -0.3210593 0.29742223 0.12175701 -0.24458033 0.2306714 0.20442735 0.03930885
-0.1287997 -0.35943237 -0.2200245 0.059091374 0.32154304 0.28841126 -0.10313487 0.034994405
0.08464494 0.09870635 0.22480957 0.041154183 0.28893903 -0.22460724 0.26514843 0.08315467
0.066364944 -0.26069963 0.40493077 0.07947174 -0.30082047 -0.16925126 0.10184566 0.014696935
-0.027745605 -0.11003563 -0.41112334 -0.21949191 0.24060155 0.12416977 0.30026114 0.38279903
0.042897698 0.21558797 0.09799254 -0.30214977 0.2953689 -0.19997022 -0.421562 -0.18569314
-0.33677012 -0.35276726 -0.023000346 0.18341292 -0.38072827 -0.13428667 0.22983709 0.13878171
0.25681508 -0.3957951 -0.43243033 -0.20204858 0.08416094 -0.2563551 -0.21787405 -0.37816542

net.2.weight f4 [64, 128]
00000000: 8990 86bd ab5e aa3d f0e9 cd3b e075 58bb
00000010: c2e9 593d c022 81bd 4823 073c 39fd 13bd
00000020: 70b1 4f3c 0207 513d 473a 62bd 84ea a33c
00000030: 309f b13c d45f c43c df0b 10bd 0081 ef3c
00000040: 4794 833d 9019 43bc a0ea d2bc 1605 9dbd
00000050: 66eb 3b3d 8065 cd3c 45e0 a13d 96d0 733d
00000060: f520 88bd 165e 1abd 4bbe 71bd b067 6ebd
00000070: 10cd a0bc c02b b23c d034 8cbb a3a6 a13d
00000080: f2e7 563d d264 6c3d fcb9 943c 8874 1a3c
00000090: 8aaa 0abd e8e1 5ebc c050 ebbb c257 6abd
000000a0: 05fe 9bbd f208 7b3d 0040 05b8 0029 b2bb
000000b0: be66 abbd 434d 5dbd e4c5 99bc 303c 0abc
000000c0: 709a ba3b 3681 1b3d a290 b0bd 7083 2ebc
000000d0: f098 0f3d 89a4 9c3d 7dec ae3d e093 86bc
000000e0: 705b aebc c01e c0ba 0872 8ebc 07a4 17bd
000000f0: d030 5bbc 0f6e a2bd bfd9 24bd c692 12bd
00000100: 06fb 483d 603b 493c 0216 2f3d 1cd0 f33c
00000110: ae40 2b3d f08f 7b3c 4de8 89bd 1c96 103d
00000120: 40c5 a53a 9518 b3bd a0ce 073c 7830 8dbc
00000130: 584c e03c 1eb6 17bd 272b 9f3d 72ba 6c3d
00000140: acc2 be3c 93da 80bd ac27 8a3c f517 953d
00000150: a850 89bd 752a 8abd 00df 23bb d8d8 e63c
00000160: d86c a53c 30c8 fd3b 49d2 3ebd 3c60 e23c
00000170: 5964 833d 68aa 6b3c 9b9a 8abd 745c 09bd
00000180: d660 7a3d 6c13 82bc 5425 953c a95e 4fbd
00000190: 417d af3d 3852 75bd 0612 acbd 4e29 eabc
000001a0: f03c 2a3c 6b6d 89bd 603e 7f3c 2732 863d
000001b0: 6429 98bc b976 8dbd 1d3c 9c3d b387 52bd
000001c0: 1615 47bd b061 f43b c234 7cbd c421 d2bc
000001d0: a03c a63b f03c 9d3b 3636 193d e8df 34bc
000001e0: f838 d3bc 0016 e8bb 552f 63bd b46e d83c
000001f0: e6a4 6b3d 384a 73bd 704e f1bb 20e6 7a3c
00000200: 4061 d73a aef1 7cbd 61f6 96bd 32be 6d3d
00000210: f4d7 9dbc 20d2 0abc 4e4b 5d3d 314a a43d
00000220: 5002 a5bb 1091 143d 0eca 1c3d 37f7 853d
00000230: a5e9 a43d 1a2b 2e3d fc2e fbbc 23ab 843d
00000240: 9b00 98bd 362d a3bd 50bc 933c 802d 133b
00000250: a05e 5bbb 6a26 20bd 8038 16ba f127 9b3d
00000260: 181d 8d3c 24d5 b53c a8f7 9bbd 86da 523d
00000270: 325a 8cbd b056 0fbd 1b32 893d 3c81 9fbd
00000280: 409c 9f3c 20ec d73b aacf 563d 58b6 113c
00000290: 4567 aa3d 802e 68bd 3d6f 2cbd 4085 8e3a
000002a0: 40cd 13bc e69b 1c3d 197d 973d da1d b0bd
000002b0: 2da3 9cbd 410a 883d 8aca 6f3d 7037 99bd
000002c0: 9e84 8dbd 492b 903d 061d 203d 1ad4 ddbc
000002d0: 923e 313d f70f 983d e0d4 413c e2fb 233d
000002e0: 88dd 373c 96ce 76bd 3df9 a33d 5030 59bd
000002f0: 887c b63c 4529 ac3d af6e 09bd ff37 5abd
00000300: 7f3e b1bd e774 8c3d e7a3 55bd 1208 1e3d
00000310: 9e4b 6ebd 0d61 b13d 3ec3 6a3d f017 eb3c
00000320: 001c f33b b811 28bc c2ed 713d d22b 623d
00000330: 14b4 22bd 7b01 28bd 1800 45bd e087 0abb
00000340: a68c 663d b8fe 6cbc 2c49 8a3c 80df 8cbd
00000350: e0c1 773c 7c70 b7bc 4be1 85bd 795b 3dbd
00000360: 1f5e 61bd 46bd e1bc 0117 853d 5f68 a3bd
00000370: a3ff a23d 8853 69bd cf2b 04bd 3293 5ebd
00000380: 7621 7a3d d0ef 80bd 7caa a3bc 321b 7d3d
00000390: 6946 44bd 901b 4c3c de1b b1bd 6a9d 14bd
000003a0: 9c16 e83c a86a 293c a0d1 f3bb 502d c7bb
000003b0: 8443 7fbd 7cc1 0b3d 5241 203d 28e5 40bc
000003c0: 7a69 5f3d 3a5a 9cbd 00cf 85b9 4330 903d
000003d0: 1b95 a63d 3a03 693d a935 8d3d 6d15 2ebd
000003e0: 13e7 aebd 3665 383d fa14 3ebd fef1 4a3d
000003f0: 9234 513d 8dec 41bd 8032 acbc 8c5f b6bc
-0.06570537 0.08318838 0.006283991 -0.0033029243 0.053201444 -0.06305456 0.008248158 -0.036130164
0.012676582 0.051032074 -0.05523136 0.020009287 0.021682352 0.023971476 -0.03516757 0.029236317
0.06424766 -0.01190795 -0.025746644 -0.07666986 0.04587879 0.025072813 0.07904104 0.059525095
-0.06646911 -0.037687384 -0.05901937 -0.058204353 -0.019629031 0.021749377 -0.0042787567 0.078931116
0.052467294 0.057713337 0.01815509 0.009427197 -0.033854045 -0.013603665 -0.007181257 -0.0572126
-0.0761681 0.061287828 -3.1769276e-05 -0.0054370165 -0.08369206 -0.05402876 -0.01877112 -0.008437201
0.00569468 0.037965022 -0.086213365 -0.010651454 0.035057962 0.0764857 0.085412 -0.016427934
-0.021283835 -0.0014657602 -0.017388359 -0.037021663 -0.013378337 -0.07931148 -0.04024672 -0.035784505
0.04906752 0.0122822225 0.042745598 0.02976232 0.04180973 0.015354142 -0.06733761 0.035299405
0.0012647286 -0.08744923 0.008289009 -0.017235026 0.027380154 -0.037038915 0.077719025 0.057794996
0.023286186 -0.0629169 0.01686462 0.0727996 -0.06704837 -0.06746379 -0.0025004745 0.028179571
0.020193502 0.0077448115 -0.046587262 0.027633779 0.06415624 0.01438389 -0.0676777 -0.033535436
0.061127506 -0.015878402 0.018206276 -0.050627384 0.08568812 -0.059892863 -0.08401875 -0.028584149
0.010390505 -0.06710323 0.015578836 0.065525346 -0.018574424 -0.0690741 0.07628653 -0.051398944
-0.048604093 0.0074579343 -0.06157375 -0.025650866 0.005073145 0.004798524 0.037405215 -0.011039712
-0.025784 -0.0070827007 -0.05546506 0.026419975 0.057530306 -0.059396952 -0.007364087 0.015313655
0.0016432181 -0.06175392 -0.07371212 0.058042713 -0.019268014 -0.008472949 0.054026894 0.080219634
-0.005035676 0.036271155 0.038278632 0.06541293 0.08052377 0.042521574 -0.030662052 0.06477954
-0.074219905 -0.07967608 0.01803413 0.002245754 -0.003347315 -0.039099135 -0.0005730465 0.075759776
0.017225787 0.02219636 -0.07615596 0.05147793 -0.06853141 -0.03499478 0.0669901 -0.077883214
0.019483685 0.0065894276 0.052444138 0.008893572 0.08320478 -0.05668497 -0.042098273 0.0010873452
-0.009021103 0.038234614 0.07396907 -0.08599444 -0.07648311 0.06642581 0.058542766 -0.07481277
-0.0691006 0.07039506 0.03909018 -0.027078677 0.043272562 0.0742492 0.0118305385 0.040035136
0.011222251 -0.06025561 0.08006523 -0.05302459 0.022276178 0.08406309 -0.03355282 -0.05327606
-0.08654498 0.06858235 -0.052158263 0.038581915 -0.058177583 0.08661089 0.057315104 0.028697938
0.0074191093 -0.010258131 0.059064634 0.05521757 -0.039722517 -0.041017037 -0.048095793 -0.0021138117
0.056286477 -0.014465027 0.016880594 -0.06878567 0.015121907 -0.022392504 -0.06537112 -0.046229813
-0.0550214 -0.027556073 0.06498528 -0.079788916 0.07958915 -0.056964427 -0.03226834 -0.054339595
0.061067067 -0.062957406 -0.019978754 0.061793514 -0.04791871 0.012457743 -0.08647893 -0.036282934
0.028331093 0.01034037 -0.0074407607 -0.0060783997 -0.062320247 0.034120068 0.039124794 -0.011773385
0.05454395 -0.07634397 -0.00025521964 0.07040455 0.08133908 0.056887843 0.068950005 -0.042500902
-0.08540168 0.045018397 -0.046406724 0.049547188 0.051075526 -0.047344733 -0.021020174 -0.022262357

net.2.bias f4 [64]
00000000: f61c 333d e08e 2bbd 6e69 11bc 7f43 d03c
00000010: 78ee b03d 5219 89bd c7b4 cbbd 7005 2e3c
00000020: 6e47 0b3b 35ac 813d 3659 17bd ec4c 4ebd
00000030: 0e0a 14bd 01a6 26bd d759 c7bc 60e8 82bc
00000040: 95a3 4c3c fcde 873d 73d4 813d 1cc6 cebc
00000050: c14d 823d b33a 85bd b1c3 4bbd 6b34 fe39
00000060: 5384 403d 27a7 cbbd 4b9a a0bd 9db3 323c
00000070: 8dcf 0d3d 08a7 24bb c0a1 a0bd 7e80 0f3d
00000080: b92c 1ebd 705f 96bd 43b2 b1bd 22f7 d1bb
00000090: e061 12bb 811f 223d b03b e43c 1e12 d4bc
000000a0: b1a7 8ebd b68b 8fbd d59f 5b3c 5498 c3bc
000000b0: 63ac cb3c fedd 5ebd 40a4 11bd c0a1 afba
000000c0: d323 61bd 0ca9 8cbd 9135 fdbb d019 81bb
000000d0: 712d 70bd 0b4b 27bd b618 25bd c498 72bd
000000e0: 404e 153d 2a28 703d e675 733d 89cc 973d
000000f0: dcef 753d 35d2 393d 2578 883d dfb1 4bbc
0.04372879 -0.041884303 -0.008875234 0.02542281 0.08639234 -0.066942826 -0.0994659 0.010621414
0.0021252292 0.06331674 -0.036950313 -0.050366327 -0.0361424 -0.040685657 -0.024334831 -0.015979946
0.012490173 0.06634328 0.063393496 -0.02524095 0.06362487 -0.065053366 -0.049747173 0.0004848571
0.047001194 -0.09943991 -0.07841929 0.010907081 0.034621764 -0.0025123972 -0.07843351 0.03503465
-0.03861687 -0.07342422 -0.08676579 -0.0064076344 -0.002233617 0.039580826 0.027860492 -0.025887545
-0.06965578 -0.070090696 0.013404806 -0.023876347 0.024862474 -0.054410927 -0.03555703 -0.0013399646
-0.054965805 -0.06868181 -0.007727333 -0.0039398447 -0.058637086 -0.04084305 -0.04030677 -0.05922772
0.03645158 0.058632053 0.05943861 0.07412059 0.0600432 0.045366485 0.06663541 -0.0124325445

q1.weight f4 [1, 64]
00000000: 80ab 6fbc bac0 b0bd 1c68 c33d d951 df3d
00000010: 0378 253d b632 993d 1a68 5a3d aac4 9ebd
00000020: d6ac b83d 18af cf3d 546c a3bd 9365 b9bd
00000030: 0e9a 203d c89a a13c 6578 e43d 303f 02bd
00000040: 8fde 0dbd 2884 2e3d 022e ad3d 0c9e 8ebc
00000050: 2583 c0bd 3b22 313d 30af aebd 6e66 233c
00000060: e80e cbbc 73d2 6cbd 3e34 93bd 2192 4dbd
00000070: f131 833d ce3f a6bd 0090 b339 0f1d 45bd
00000080: 8833 0cbe 5d38 c13c 26cd b7bd 3dbb 253d
00000090: b0d3 383c a297 ca3c cec6 cfbd 60d3 f93c
000000a0: 1667 c83d 9092 2fbc 9ce2 37bd fc8c 84bd
000000b0: 9658 c83d a622 a3bd 901d a23d 2866 45bd
000000c0: 32a8 a03d a7fe 01be 396f 08bb 64f1 a73d
000000d0: 0c95 303d 1d2c b2bc 20e4 b5bc a484 ee3d
000000e0: 5177 b03a 905e 7bbc cc72 04bd 46d6 163d
000000f0: a592 483d 1302 ca3d ea3a 7abd 7b0b e3bd
-0.014628291 -0.0863051 0.09541342 0.10904283 0.040397655 0.074803755 0.053321935 -0.077523544
0.09017341 0.10140818 -0.07979646 -0.09052577 0.039209418 0.019727126 0.11155776 -0.03179854
-0.034636077 0.042606503 0.08456041 -0.017409347 -0.09400014 0.043245535 -0.08529508 0.009973152
-0.024787381 -0.057817888 -0.07187699 -0.050188188 0.0640601 -0.081176385 0.0003424883 -0.048123416
-0.13691533 0.023586446 -0.08974676 0.040461767 0.011280939 0.024730507 -0.10145341 0.0304963
0.09785287 -0.010716096 -0.044893846 -0.06472203 0.097825214 -0.07965593 0.07915795 -0.048193127
0.07844581 -0.12694798 -0.0020818247 0.082003385 0.043110892 -0.02174955 -0.022203505 0.11646393
0.0013463293 -0.01534237 -0.03233604 0.03682544 0.048967976 0.09863677 -0.06109134 -0.11086174

q5.weight f4 [1, 64]
00000000: 9071 ecbc ac91 c0bd c92b fe3c 0377 ea3d
00000010: c95b c03d c6f6 d8bd fb9e 8f3c 90fa 17bc
00000020: fd67 a93c 1241 b8bd fe61 15bd 7add 99bd
00000030: e274 0cbb 18cc df3d a2df 9c3d a4ab 01bd
00000040: f7c0 183d bdb1 7f3d c09d c4bc 10d8 41bd
00000050: 4d9a df3c 3d4c 6b3d f69f 7ebd 3199 b13d
00000060: 4fd2 95bd 8643 0f3e fe4b fbbd 80d3 8b3d
00000070: f517 a73d ed7b d43c 986e 2f3d cccd a4bc
00000080: 25f1 a3bd e9eb 5e3c 4c76 6b3d 136c 2cbd
00000090: 247e 71bd 6c3a 793d 5cab 69bd 1b18 623d
000000a0: 08e5 6f3b 8055 1dbd 2555 493d 00df 5bbd
000000b0: feb7 8739 687f cbbd 2488 b03d 98dc e5bd
000000c0: a946 bf3c 1980 afbd 18fc 1b3d 4846 9bbd
000000d0: ce5b c63d 9d4d 00bc ea5b 923d 703d b6bc
000000e0: 648d ba3c 1871 5d3d 9480 40bd ad68 4bbd
000000f0: 68ca dc3c 19d0 33bd 02fc dd3c 7ade edbc
-0.028862745 -0.09402785 0.031026738 0.11448481 0.09392507 -0.10593943 0.017531862 -0.009276047
0.020679468 -0.08996786 -0.036470406 -0.075129464 -0.0021431972 0.109276 0.07659842 -0.03165783
0.0372934 0.062425364 -0.024001002 -0.047325194 0.027295256 0.057445753 -0.06216427 0.08671797
-0.07315504 0.13990602 -0.12270354 0.0682745 0.08158866 0.025937999 0.04283008 -0.020117663
-0.08004979 0.01360605 0.057485864 -0.042095255 -0.058958188 0.06084673 -0.057048187 0.05519877
0.003660502 -0.038411617 0.049153466 -0.053679466 0.0002588629 -0.0993641 0.08619717 -0.112237155
0.023349123 -0.085693546 0.038082212 -0.075817645 0.09685479 -0.007831004 0.071464375 -0.022246093
0.022772498 0.054062933 -0.04699762 -0.049660373 0.026951984 -0.04389963 0.027097706 -0.02903675

q10.weight f4 [1, 64]
00000000: f0a5 68bc f0a0 2ebc 63df 5e3c 019a c83d
00000010: 2248 ba3d ec1f bf3d 8bbc c83d 9cc2 e43d
00000020: 201c df3d 4e56 983d d90a 473c 931c baba
00000030: ebc0 0fbd f022 dabd 76af 92bd f033 31bd
00000040: 10ae 8fbd 47db dfbd 940f b8bd 4e9c d9bd
00000050: 3a02 77bd 0d32 0f3d c81b e539 5a38 d0bd
00000060: d28a 24bb 52af ab3c 3cd1 e0bd af46 babd
00000070: 56e6 983d 6137 85bd 40f8 a43c 0b58 2ebc
00000080: 2b40 6abd b7ac 343d 18e4 af3d ceb5 92bc
00000090: 10c2 ecbd 842d a5bc 78fc 5a3d 0274 303c
000000a0: 4ba5 01bd b018 a0bd 4564 0c3d 0072 323b
000000b0: 0537 c53d 1c80 4dbd 2c7b 433d d896 e03c
000000c0: 4995 ba3d bbc2 5bbd f60b e03d 8c5d 11bd
000000d0: a262 b5bd a02e beba a07b e9bc 6c89 08bd
000000e0: 39ae b33d c0cc ffbb 52e0 aabd b2db debd
000000f0: 6794 e3bd 2149 40bb 3f35 b63d bc65 b0bd
-0.014199719 -0.010658488 0.013603064 0.09794999 0.090957895 0.093322605 0.09801587 0.11169931
0.10894036 0.07438336 0.012148582 -0.001419919 -0.03509609 -0.10651195 -0.07162373 -0.043262422
-0.07015622 -0.10930496 -0.08987346 -0.10625516 -0.060304858 0.03495984 0.00043698982 -0.10166998
-0.0025107157 0.020957623 -0.10977408 -0.09095513 0.07465808 -0.06504703 0.020137906 -0.010641108
-0.0571901 0.044110026 0.08588427 -0.017908957 -0.11560452 -0.020163305 0.05346343 0.010769846
-0.031651776 -0.07817209 0.034275312 0.0027228594 0.09629635 -0.050171003 0.047724888 0.027415678
0.09110505 -0.053652506 0.10939781 -0.035489604 -0.08856703 -0.0014509745 -0.028501332 -0.03333418
0.08773465 -0.0078063905 -0.08343567 -0.10881747 -0.1111229 -0.0029340463 0.08896875 -0.08613154
